CNN.pt (torch, 233399 bytes, 8 tensors)

conv1.0.weight f4 [16, 1, 5, 5]
000000 46 02 90 be a8 29 10 bf da 0d b6 be 95 62 1f bd
       -0.28126734 -0.5631356 -0.35557443 -0.038912375
000010 21 40 a7 3e 19 eb b8 be b3 f8 af be db c5 58 3e
       0.32666114 -0.36116865 -0.3436943 0.21169226
000020 12 a8 9f 3e 81 9f 85 3e 07 e5 ae be 25 79 bc 3d
       0.31182915 0.26098254 -0.3415911 0.09202794
000030 b5 80 b9 3d 95 2c a0 3d 15 a0 20 3e 14 bb 23 be
       0.09057752 0.07821003 0.15686066 -0.15989333
000040 ce 96 fc 3c 57 84 2c 3e ad 8f 29 3d 4b 9d 04 3d
       0.030833628 0.16847359 0.041396786 0.03237657
000050 21 11 f3 3d c8 69 53 3d ba 80 48 bd 28 ef e0 3d
       0.118685015 0.051614553 -0.04895089 0.109831154
000060 6f c8 20 3e d4 84 d4 3d 71 d8 53 3d c5 5d 0a bd
       0.1570146 0.103768975 0.051720086 -0.03378083
000070 99 8f 14 3d 18 1b d0 be 4b 30 e2 bb f6 75 5a 3e
       0.036269758 -0.4064567 -0.0069027296 0.21334061
000080 89 54 9c 3e 75 56 98 be 41 3a c7 be f3 e8 b9 bd
       0.30533245 -0.2975346 -0.38911632 -0.09077635
000090 30 8b 22 3e 24 b8 10 3f aa a7 aa 3e a6 72 86 be
       0.15873408 0.56530976 0.33331043 -0.26259345
0000a0 f1 ec c1 be 4c 39 0b be db 6f ad 3e 86 8a 5c 3e
       -0.37876084 -0.13596076 0.338744 0.21537217
0000b0 70 95 e5 bd 7e db d7 be 6c 93 e5 be 53 cf 47 3d
       -0.112101436 -0.42159647 -0.44839036 0.048781704
0000c0 ab f0 44 3e 68 67 ac bc 4c 2c 2a 3e 95 e8 71 3e
       0.19232433 -0.021045402 0.1661846 0.23623879
0000d0 42 15 69 3e 31 d0 79 3e 40 fa d5 3d d0 2e 46 3e
       0.22762015 0.24395825 0.10448122 0.19353795
0000e0 5d 00 7b 3d a1 1a 41 bd 3d 15 06 be 54 4e 4a be
       0.061279643 -0.047144536 -0.1309404 -0.19756442
0000f0 e7 f8 bb 3e 24 a5 80 3e 2f 42 d9 bc 94 8d 23 be
       0.36713335 0.25125992 -0.026520817 -0.15971977
000100 12 ac f3 be 59 b6 04 bd 73 75 94 3d a6 fb 79 bd
       -0.47592217 -0.032400463 0.07248964 -0.061031006
000110 3e 3a c3 be 4f b5 37 be 02 9c 40 3d 8b 02 93 3d
       -0.38130373 -0.17940257 0.04702378 0.071782194
000120 fc d9 d5 be d4 9c 9a be 6e b9 5c bc 5f 15 e6 be
       -0.4176787 -0.30197775 -0.013471944 -0.4493818
000130 d5 59 b6 3d 8c bd a3 3e ec e5 ae 3c c7 35 98 bd
       0.08903853 0.3198055 0.02134987 -0.07432132
000140 dd e0 7f be ef 6e 29 bd e2 09 b5 3e da ce 8b 3e
       -0.24988122 -0.04136556 0.35359102 0.27306253
000150 e5 77 10 bf a2 28 bc bc 66 98 72 3e df 12 c0 3e
       -0.56432945 -0.022968594 0.23690948 0.37514398
000160 5e dc 0f 3e ec d2 3b bf 4c 4c 01 be 60 e0 41 3e
       0.14048907 -0.73368716 -0.12626761 0.18933249
000170 a3 c5 f3 3c a2 43 2e bc 09 45 8f be 11 0f f3 bc
       0.029757326 -0.010636242 -0.27982357 -0.02967027
000180 7c 8f 90 3d 3b d8 37 be dd 55 fa bd 06 1c 60 be
       0.070586175 -0.17953579 -0.12223408 -0.2188569
000190 f8 a8 5a be c7 be cc bd 71 47 87 bd fe ed 14 3e
       -0.21353519 -0.099973254 -0.06605423 0.14543912
0001a0 27 c2 40 3d 10 86 c0 be 2e 8b 85 be 24 57 61 3e
       0.047060158 -0.37602282 -0.26082748 0.22005898
0001b0 af 34 8a 3e 09 f5 e3 bc 16 72 f3 be 89 92 b6 3d
       0.2699332 -0.027826803 -0.47547978 0.08914668
0001c0 d1 f1 aa 3e af a6 72 3d d0 db 4a 3d d0 e5 05 bf
       0.33387616 0.059240993 0.049526036 -0.5230379
0001d0 10 60 78 3e 7f b4 fa 3d af 7b 9a 3c a5 e0 71 bd
       0.24255395 0.12241458 0.018857805 -0.05905213
0001e0 7f 12 d8 be a6 a1 36 3e 42 dd 82 3e a8 1e d5 bd
       -0.4220161 0.17835101 0.2555943 -0.10406238
0001f0 d9 c7 b0 3d 79 9a b3 bd b4 cd 00 3e fd c5 b4 3e
       0.08631868 -0.08769698 0.1257847 0.35307303
000200 7e ae e4 3d a9 3a 93 be c8 54 11 3e 9b 9e 6a 3e
       0.11166094 -0.28755692 0.14192498 0.22912066
000210 55 ac 1b 3e af 08 e8 3e 25 2f 90 3d 3c 12 0a be
       0.15202458 0.45319125 0.07040242 -0.13483518
000220 11 b3 89 be 10 86 16 be d2 9a a8 3e 89 ad e6 bc
       -0.2689443 -0.14699578 0.3293062 -0.02815892
000230 81 b8 24 bf cb 83 d3 be 1f 0a fe bd c2 9e 3f bd
       -0.6434403 -0.41311488 -0.12404274 -0.046782263
000240 a3 cd 9d 3e 32 46 84 be 5c 58 69 be 79 38 17 3d
       0.3082095 -0.25834805 -0.22787613 0.03691909
000250 e5 cd 55 3e 36 b0 01 3e b7 16 9b 39 b2 c0 43 3e
       0.20879324 0.12664875 0.00029580828 0.19116476
000260 8f 8e a1 bd e6 6d 0f bf 50 4e ed be 29 d5 a7 be
       -0.07888519 -0.56027067 -0.4634881 -0.32779816
000270 fb 49 13 3e fe df a2 3d d5 4e 61 be 23 f5 69 3e
       0.1438369 0.07952879 -0.22002728 0.22847418
000280 48 e0 02 bf 83 a3 58 be 98 db 78 3d 12 57 c3 3e
       -0.51123476 -0.21156125 0.060756296 0.38152367
000290 1a 4e 98 3e 41 0b d5 be a8 09 d7 3e 11 79 64 3e
       0.29747087 -0.4161015 0.41999555 0.22311808
0002a0 0d a5 33 3e 06 d2 d7 bc c1 f6 1f bd e0 80 96 3e
       0.1754343 -0.026345264 -0.039053682 0.293952
0002b0 99 c6 81 3d 71 be ca 3c 9e 27 a8 be bf 0c d6 bd
       0.063367076 0.024749013 -0.32842726 -0.1045165
0002c0 c8 ef 1f bd e1 da 9a be ad d1 4e 3e 78 d3 ab 3e
       -0.039047033 -0.30245116 0.20197172 0.33559775
0002d0 5c 63 e4 3d f2 02 cf be a2 3a 16 bf 7c 91 9d be
       0.11151764 -0.40431935 -0.58683217 -0.30775058
0002e0 4b 29 78 be 82 48 7f 3e 1c 9b 6f bd 90 b0 8d be
       -0.24234502 0.24930003 -0.058497533 -0.2767377
0002f0 4e ad 9a be ff e4 0f be e8 1a cc 3e 3c 11 fe 3e
       -0.30210346 -0.14052199 0.39864278 0.49622524
000300 99 38 88 3e 8f c1 bc bc ff 29 13 3d ac 90 d0 bd
       0.2660568 -0.023041515 0.035928722 -0.10183844
000310 80 e7 d2 bc 3b dd 96 3e a5 42 0e 3e f0 4d ba 3d
       -0.025745153 0.2946566 0.1389261 0.09096897
000320 70 32 a7 be f9 96 84 3e d0 43 cc 3b 0b dc 52 3c
       -0.32655668 0.25896433 0.00623367 0.012869845
000330 04 e6 b5 bd 09 19 6c be cd 2d 68 3e 44 cb 84 3e
       -0.088817626 -0.23056425 0.22673722 0.2593633
000340 c8 28 27 be 40 7e 0d be 1e d4 de bd 0b ef cb 3e
       -0.1632415 -0.13817692 -0.10880302 0.39830813
000350 1f 28 55 3e 4a f8 c8 be 5e 96 5d be 82 10 60 3d
       0.20816086 -0.3925193 -0.21639392 0.054703243
000360 d8 3c 93 3e 83 92 30 3c 33 2f f6 be dc 46 4f be
       0.28757358 0.010777119 -0.48082885 -0.20241874
000370 88 6b 94 3e 56 08 3d 3e c0 47 31 be 28 8a 83 be
       0.2898829 0.18460211 -0.17312527 -0.25691342
000380 dc c3 8d bd 4f a0 04 3d 02 e9 44 bd 10 cf 40 3e
       -0.06922123 0.032379445 -0.048073776 0.18828988
000390 aa 9a f9 3d c0 92 92 3e 56 99 a1 3e 14 bb c8 3e
       0.12187703 0.28627586 0.315623 0.3920523
0003a0 78 b5 43 3e ea c7 81 3e 27 17 af 3d 5e ee 6c 3e
       0.19112194 0.25347835 0.08549338 0.23137805
0003b0 b4 11 9b 3e bc 56 9e 3d c7 93 30 bc 56 44 48 be
       0.30286944 0.07731387 -0.01077742 -0.19557318
0003c0 e9 16 b3 be 9f 43 ab bd e7 85 e2 be 80 ec 0a bf
       -0.34978417 -0.08362507 -0.44242784 -0.5426712
0003d0 69 84 e5 be 5b 31 c0 be 92 7b 3e bf bf c0 b6 be
       -0.44827583 -0.37537655 -0.74407303 -0.3569393
0003e0 c2 25 51 3c 07 67 9a 3c fc 33 8c 3d d9 f0 75 be
       0.01276535 0.018847955 0.06845853 -0.24017657
0003f0 b9 20 b1 bc bb 16 c7 3d b7 af 5a be f5 47 28 be
       -0.021622049 0.09721132 -0.21356092 -0.164337

conv1.0.bias f4 [16]
000000 3f 0f 80 be 11 b4 10 be 0e e2 12 be f5 9d 1f bb
       -0.25011632 -0.1413119 -0.14344046 -0.0024355624
000010 45 9d 49 be 40 e5 d4 be 60 34 94 bd 56 fb aa bd
       -0.196889 -0.41581154 -0.07236552 -0.0834872
000020 f4 59 55 bd 9c 79 cd 3d 7b 5f 0d bd e4 da 24 bd
       -0.05208774 0.10032961 -0.034514885 -0.040247813
000030 6e 9f 1c bd fd 67 41 be 33 7f 37 3d 4a 87 95 bd
       -0.03823798 -0.18887325 0.04479904 -0.07301195

conv2.0.weight f4 [64, 16, 5, 5]
000000 ff 75 06 3e db 91 0e 3e ef 5a 95 3d 36 3d eb 3d
       0.1313095 0.13922827 0.07292735 0.114862844
000010 56 f0 78 bd bc ff f2 3c d7 da 2c bd 94 f5 e9 3c
       -0.060776077 0.02966296 -0.04220089 0.028559484
000020 a4 78 88 3d 98 c2 b6 bd 2f 9f 30 3b 0a 03 1c bd
       0.066636354 -0.089238346 0.002695035 -0.038088836
000030 6f cf f5 3c 51 f5 5a 3d 86 ec 15 be f5 f8 b5 bd
       0.030006139 0.05345661 -0.14641008 -0.088853754
000040 25 fa 41 3d 77 d4 e4 3b dd 22 14 3e bc 94 05 bf
       0.047357697 0.0069833356 0.14466424 -0.52180076
000050 c8 17 e0 3d 8a ae e5 3d 04 65 35 3d 49 4c 9a be
       0.10942036 0.11214931 0.04428579 -0.30136326
000060 b4 be 90 be c9 1d 4b be 98 75 af bc 6f d7 5d bd
       -0.28270495 -0.19835581 -0.021418378 -0.05416053
000070 32 1c f4 bd ed 65 41 3c ba 22 94 bd f6 da 26 bd
       -0.1191944 0.011804086 -0.07233186 -0.04073616
000080 5d 78 a0 3d 90 15 b6 be 60 37 60 bc c2 b7 a2 bd
       0.078354575 -0.35563326 -0.013685077 -0.07945205
000090 89 a1 88 bd 4d 54 bb 3d eb 78 dd bd eb b1 88 be
       -0.066714354 0.091469385 -0.10814079 -0.2669824
0000a0 42 be b9 bd ed 84 0d be ad da 8b bc 92 f9 46 3d
       -0.09069492 -0.13820238 -0.017072046 0.048577853
0000b0 be 4a ab be 80 41 d0 3d d4 73 8f 3d 56 34 5d 3d
       -0.3345546 0.10168743 0.07004514 0.05400499
0000c0 11 97 0f bd 02 a4 80 be 3c cf c9 be 65 8e bb be
       -0.035056178 -0.25125128 -0.3941592 -0.36632076
0000d0 c9 63 74 be dd 9f 72 bd e4 6b e9 bd c7 97 8d be
       -0.2386619 -0.05923449 -0.11397532 -0.2765486
0000e0 cf 29 df be 93 9c 36 bd a6 cc 1c 3e 5c 1a 8b bc
       -0.43586585 -0.044582915 0.15312442 -0.016980343
0000f0 7a 83 02 3d 30 b6 a4 be 30 05 81 3d f7 9e 0d 3e
       0.031863667 -0.32170248 0.062998176 0.13830172
000100 25 6e 9f 3d 69 5d 05 be 02 60 44 be ae 77 ae 3d
       0.0778468 -0.13023914 -0.19177249 0.08518921
000110 57 1f fd 3d 8a 41 ad 3d d4 62 b1 be e3 ce 0a 3d
       0.12359493 0.08459766 -0.34645712 0.03388871
000120 41 03 88 3d d6 b8 57 3c 1e 58 1e 3c 40 3a 88 be
       0.06641246 0.013166627 0.009664563 -0.2660694
000130 0d 1e a6 be b8 50 00 be e7 30 a1 bc 80 b5 08 bd
       -0.32444802 -0.12530792 -0.019676639 -0.033376217
000140 c3 ad 30 be 09 72 c2 be cf 99 d8 bb 36 f7 87 bd
       -0.17253785 -0.37977627 -0.0066101323 -0.066389486
000150 07 f6 bd bd 1a 37 47 be e4 51 69 be e5 69 5d 3c
       -0.092754416 -0.19454613 -0.22785145 0.013514017
000160 4d bf f9 3d d7 14 4f be 16 d9 01 bf 39 77 35 3e
       0.12194691 -0.20222794 -0.5072187 0.17721261
000170 f7 45 f7 3d 2b 23 41 3e a8 da c6 be d5 2e 22 be
       0.120738916 0.18861072 -0.38838696 -0.15838178
000180 4a 6d 61 bc 46 32 76 3d cf 14 1f 3e 4b e0 c3 be
       -0.013758967 0.06010654 0.15535282 -0.3825706
000190 4c ae 1e be f7 2c bc bc dd 7a a9 bd 9c 51 8f bc
       -0.15496176 -0.02297066 -0.082753874 -0.01749497
0001a0 0d 45 df bd 69 55 67 bd 37 61 01 bd 0f 4f e0 bd
       -0.10901842 -0.056477938 -0.031586852 -0.10952579
0001b0 3f 6c 58 3d 3a c6 04 bd da 1d 44 bd 66 24 c6 bb
       0.052837607 -0.032415606 -0.04788003 -0.0060468195
0001c0 aa d9 e5 3d 17 c2 c0 3d 12 14 0d be 3a ad fb bc
       0.11223157 0.0941202 -0.13777187 -0.03072225
0001d0 74 08 0c 3e a7 ab 4f 3e 2a 92 c1 3e 90 e3 24 bf
       0.136751 0.20280324 0.37806827 -0.6440973
0001e0 43 7a 13 3d 32 4a ac 3d 2b af b6 bd 9b 67 24 be
       0.03600527 0.08412589 -0.089201294 -0.16055147
0001f0 10 97 bb be 6d 0d eb bd 27 b1 68 be 43 16 03 be
       -0.3663869 -0.1147717 -0.22723828 -0.12801461
000200 48 24 20 be 94 e8 09 bd ec 3a 10 be 49 c4 bb 3d
       -0.1563884 -0.03366907 -0.14084977 0.09168298
000210 7a 55 ce 3d 46 59 8f bd a0 98 ac bd 5c 85 96 3d
       0.10074897 -0.069994494 -0.084275484 0.07349655
000220 df 73 6a 3e 13 67 5c 3e d1 27 94 be e7 c7 46 be
       0.22895764 0.21523695 -0.28936628 -0.19412194
000230 4f fa 87 3d 1f 63 64 be 8d a0 60 be b4 0f bd be
       0.066395395 -0.22303437 -0.21936245 -0.36926043
000240 ee 92 a1 bd 05 1a 92 3d 81 19 b1 bd 20 79 a5 ba
       -0.07889353 0.07133869 -0.086474426 -0.0012624599
000250 4b 96 69 be 55 d2 38 be bb 05 59 3d 91 a9 1e 3d
       -0.22811238 -0.18048985 0.05298398 0.03873593
000260 11 00 f8 3d 98 bf 75 3d ba 20 cb bc e1 1a 80 3c
       0.12109388 0.05999717 -0.024795879 0.015637817
000270 88 96 df 3d 24 5e 18 be 91 ea a0 bc 30 59 c7 3d
       0.109173834 -0.14879662 -0.0196431 0.09733808
000280 1e 71 a1 be f2 db b3 3c 6d 2b a4 3d da 53 a0 3d
       -0.31531614 0.021955464 0.08016095 0.078284934
000290 8d a1 1b be 0a 94 20 3c 28 89 9e 3d fa df 53 3d
       -0.15198345 0.00980092 0.07741004 0.051727273
0002a0 ae 51 b3 bd a5 79 d4 be d9 a8 56 3e 97 7f 04 3d
       -0.087558135 -0.41499057 0.20962848 0.03234824
0002b0 5d 0f 42 bd b9 29 80 3d 24 2f 81 be 03 34 f3 bc
       -0.047377933 0.06257958 -0.25231278 -0.029687887
0002c0 2c bc 82 3c b3 5a a6 3d b2 e8 3c 3d dc d0 25 3e
       0.015958868 0.08122768 0.046120353 0.16192955
0002d0 90 32 eb 3c 3d 29 50 bb ef e0 b1 3d 74 b5 5e bd
       0.028710634 -0.0031762861 0.08685481 -0.054372266
0002e0 c0 40 00 be df 92 32 be 88 bb bd bd 7d d0 c9 bd
       -0.125247 -0.1743884 -0.09264284 -0.09854219
0002f0 df 34 9b bc 3a 1a 7f be 4d 3a ad 3c 1a 83 9c bd
       -0.01894611 -0.24912348 0.021145964 -0.07642193
000300 c9 93 60 be 69 53 ce bd b5 cd 17 be e3 30 58 bd
       -0.21931376 -0.10074503 -0.14824565 -0.052780997
000310 42 37 26 be 7e 97 4e 3b 8f 12 5c be d4 ff 65 bd
       -0.16232017 0.0031523402 -0.21491455 -0.05615218
000320 47 de fe be f0 c7 03 bf 04 08 8e be 38 22 85 bc
       -0.4977896 -0.51476955 -0.2774049 -0.016251668
000330 1b d3 cd bd b7 b3 c3 be 0b 9d 40 bf ee ea ec bc
       -0.10050031 -0.3822305 -0.7523963 -0.028920617
000340 eb ac 27 3e da 50 55 bd 55 86 56 be c1 0e d8 be
       0.16374557 -0.05207906 -0.20949681 -0.42198756
000350 f2 f3 96 3e d8 6f 53 3e d4 be 17 3c f7 50 1c bf
       0.2948299 0.20648134 0.009261806 -0.6106104
000360 d5 d2 db 3d 1a 57 2b 3d f3 31 c7 3d e4 cf 72 be
       0.107335724 0.041831113 0.09726324 -0.23712116
000370 e9 58 00 bf 10 43 6c 3d 3b f5 7b bd eb f7 49 3d
       -0.50135666 0.057681143 -0.061513167 0.0493087
000380 e9 42 88 be 61 9c 6f be fa f6 5d be 33 0a a1 be
       -0.26613548 -0.23399498 -0.21676245 -0.31453094
000390 85 81 3a be f9 6b 0e bc a2 63 c2 bd d1 21 b6 3d
       -0.1821347 -0.008692735 -0.0949166 0.08893169
0003a0 c7 ce 04 be 7e 48 b9 3c e2 1a 59 bd 40 7d 5d 3e
       -0.12969504 0.022617575 -0.053004153 0.2162981
0003b0 05 01 09 3b 87 22 85 be 9c 33 76 bd 5b 9e 1f 3c
       0.0020905149 -0.26002905 -0.060107812 0.009742345
0003c0 e3 4f c5 bd f3 a9 ef be 8d f2 b4 3b 0e 7e 69 3e
       -0.09634378 -0.46809348 0.0055220784 0.22801992
0003d0 0e 2e 0e 3d 52 75 20 be 64 f8 42 3d 3e 42 09 3d
       0.03471189 -0.15669754 0.047600165 0.03351044
0003e0 bf c5 7d 3d 45 25 5e bd 88 eb c2 bc c5 88 f4 bd
       0.061956163 -0.05423476 -0.02379395 -0.11940149
0003f0 52 91 ec bd f5 d3 fe 3d cd 9f f8 3d 67 ed 50 3e
       -0.11551155 0.12442771 0.121398546 0.20403062

conv2.0.bias f4 [64]
000000 60 32 8e bd a7 46 1d be 45 9e 00 bd 85 ca 1b be
       -0.06943202 -0.15358983 -0.031400938 -0.15213974
000010 ae 58 28 3d 1a d9 fd bc b8 29 32 bd bd 1e 1a 3c
       0.041100197 -0.030987311 -0.043496817 0.009406743
000020 b9 9a 18 be b8 43 d8 bd 17 99 28 3b c4 51 1d be
       -0.14902772 -0.10559791 0.0025726014 -0.15363222
000030 5b fd b4 bd 39 8a a6 bc 7b 79 ef bd b0 f0 36 be
       -0.08837386 -0.020329582 -0.116930924 -0.17865252
000040 bc 41 74 be 70 b7 7b be fd 66 ce bd fb a0 b0 bd
       -0.238532 -0.24581695 -0.10078237 -0.086244546
000050 bb 70 94 bd fc dd 4f be 53 3e 55 bd 5d 86 9f 3b
       -0.07248064 -0.20299524 -0.05206139 0.0048683123
000060 88 dd 1c be 3e a6 03 be a2 e8 95 bd e5 b4 0f 3d
       -0.15318882 -0.12856385 -0.07319762 0.035084624
000070 f4 16 3e be 31 9e 74 bd e6 47 51 be ad 6d 28 bd
       -0.18563443 -0.059721176 -0.20437583 -0.04112022
000080 72 75 14 be 20 2f 81 bd 28 90 30 3d d9 53 21 bd
       -0.14497927 -0.063078165 0.043106228 -0.039386604
000090 54 52 ec bd af 6d f4 bd 46 fb c9 bb de 0a a4 bd
       -0.1153914 -0.11934983 -0.0061639873 -0.08009885
0000a0 44 27 2b be f1 7b 06 bd 8a d5 3c be cf d8 c8 bc
       -0.16714197 -0.032833043 -0.18440834 -0.024517445
0000b0 65 89 02 bd a7 df b0 bd 94 fc ba 3d 76 4d 9d bd
       -0.03186931 -0.08636408 0.09130207 -0.0768079
0000c0 e5 1d 47 be fd 57 8b be c9 31 c3 bd bb 1f 61 bd
       -0.19444998 -0.27215567 -0.0953098 -0.0549619
0000d0 7a 6d e3 bd dc 14 0b be 6c 26 43 bd 00 cb 0e 3c
       -0.11104865 -0.13582176 -0.047644064 0.008715391
0000e0 0e b9 62 bc 11 e6 7f 3b e0 ba d4 bd 2f 86 36 be
       -0.013838066 0.0039047042 -0.10387206 -0.17824624
0000f0 dd 2c 30 be 3d 7d 53 bc 0b 18 17 be e0 fe bc bd
       -0.17204614 -0.012908277 -0.14755265 -0.09228301

out.0.weight f4 [10, 3136]
000000 99 e6 91 be 5c 5e 86 3e fa 22 99 3d 58 09 c5 be
       -0.28496245 0.26243865 0.074773744 -0.3848369
000010 6f 10 4e be a4 fd 09 be 1c b5 17 be b2 ca a6 3e
       -0.20123456 -0.13475662 -0.14815181 0.3257652
000020 93 4d 7e 3e ad c5 10 3e f7 f7 43 3d be 4f 33 3d
       0.2483428 0.14137907 0.0478439 0.04377722
000030 a9 16 25 3e 60 5a 94 3d 0b 17 a5 3d 72 20 00 bd
       0.16121925 0.072438 0.08061036 -0.031280942
000040 fc 42 a5 bd b8 dc 25 be a7 a2 7d 3d b0 ee 7a 3c
       -0.08069417 -0.16197479 0.061922695 0.015315697
000050 07 df 88 3d 71 43 b8 3c 36 25 76 be 9c 01 26 be
       0.06683164 0.022493096 -0.24037632 -0.16211551
000060 e5 db 39 3d 0b 7b b6 bd 28 c5 d9 3d df 97 de 3d
       0.045375723 -0.08910187 0.10633308 0.10868811
000070 29 04 26 be da 5c 4e 3e 17 dc 0b be 40 b0 ae bd
       -0.16212524 0.20152608 -0.13658176 -0.08529711
000080 59 00 e2 3b 11 10 ab bd 6a 50 84 3d 03 6d 87 3d
       0.006897014 -0.08352674 0.0646065 0.06612589
000090 6c 57 e6 bb 43 85 da bd 2f 0f 99 bc e3 97 d9 bc
       -0.0070294645 -0.10669949 -0.018683998 -0.026561683
0000a0 9c a1 a7 3d 37 eb 4e 3e b2 27 a8 3b 40 0c 1a be
       0.081851214 0.20206915 0.005131685 -0.15043736
0000b0 18 84 64 3c b4 6a c7 3d 10 94 90 bc eb 24 dc bd
       0.013947509 0.09737149 -0.017648727 -0.10749229
0000c0 ab cb 1e 3c c8 43 91 bd 1d 51 1d bc e8 28 bc 3c
       0.009692113 -0.07093006 -0.009601858 0.022968724
0000d0 f1 24 21 bc 24 d7 e6 3c d3 2f 10 be a5 56 5b 3d
       -0.009835468 0.028178759 -0.14080743 0.053549428
0000e0 b4 e6 ac 3d fc 96 44 3d f1 7b 20 bd 67 49 ca bc
       0.08442441 0.047995552 -0.0391807 -0.024693204
0000f0 d0 84 01 bd 52 9c 67 3c 4d bc 84 3c bf 8f 13 3e
       -0.0316208 0.014136391 0.01620307 0.14410304
000100 99 81 49 3e d0 80 6a 3e 04 32 a8 bd be cc 91 ba
       0.19678344 0.229007 -0.08212665 -0.001112364
000110 2f 1c 7a 3d ac 09 74 bd 83 ea 57 3e 2c da 8b 3e
       0.061062034 -0.059579536 0.21085553 0.2731489
000120 b5 ea f6 3e 86 ee d4 3e 46 c8 a5 3b 8a 7e db 3c
       0.48225942 0.4158823 0.005059275 0.026793737
000130 54 73 8c 3d 4e 10 31 3e 60 8c b3 3b 06 d2 e7 3d
       0.068579346 0.17291376 0.0054793805 0.11319356
000140 d9 9d 41 3e b6 52 81 3e 67 00 08 3e 37 05 91 3d
       0.1890787 0.25258416 0.13281403 0.07081073
000150 80 3f ab 3d 00 6b 7a bb 4c 0b e7 bd a9 46 50 3d
       0.08361721 -0.003821075 -0.112814516 0.050848637
000160 c3 b2 1b 3d 06 75 14 3e ce 59 8f 3c 70 b0 34 3d
       0.038012277 0.14497766 0.017498877 0.044113576
000170 81 18 81 3c e9 d0 df be f5 8a d7 bd 5b da 4a 3e
       0.015758755 -0.43714073 -0.10524551 0.19809859
000180 15 38 87 3e cd 93 16 be bf 45 bb 3d 29 10 90 bd
       0.26409975 -0.14704819 0.091441624 -0.07034332
000190 35 6b 01 3e eb a7 7b bb 3d de 6a bb da 1b 5e 3c
       0.12638552 -0.0038399647 -0.003583803 0.013556445
0001a0 9d ce 0b be 52 22 2a 3d 76 3c 3b 3e f5 45 1f 3d
       -0.13653035 0.041536637 0.18284783 0.038885076
0001b0 f7 9a b4 3d d3 8d 0c be 4c 65 83 bd e8 e7 58 bd
       0.0881862 -0.13725977 -0.06415805 -0.052955538
0001c0 8d 35 dd bc c0 68 a0 3c f8 d0 7a bd 2e c4 f9 3d
       -0.027003074 0.019581199 -0.061234444 0.121956214
0001d0 3e 72 67 3e 07 f5 83 3e 86 2b 84 3e d6 67 9c 3d
       0.22602174 0.2577288 0.25814456 0.07636993
0001e0 a7 06 df bc 9b 74 a6 3d d3 bb 69 3c b2 ef b8 bb
       -0.027224852 0.081277095 0.014265972 -0.0056438083
0001f0 78 95 82 ba 63 92 5d 3e 86 42 35 bd 8f 3d 82 bd
       -0.0009962758 0.21637873 -0.044252895 -0.063593976
000200 25 db 51 bd e8 63 aa bc b1 f7 93 3d a9 37 22 bd
       -0.051234383 -0.020799592 0.07224978 -0.039603863
000210 9c ad c2 bc df 74 92 3c 5c 4d 53 bd 8c 44 ec 3d
       -0.023764424 0.017877994 -0.051587448 0.11536512
000220 62 c8 92 bb 74 56 93 bd 22 8c 0a be b2 30 0a 3e
       -0.004479454 -0.07194224 -0.13530019 0.13495138
000230 28 f4 d7 bb 7c 62 03 3e 4d 14 94 bc ea 95 08 ba
       -0.006590385 0.12830538 -0.018076086 -0.0005210327
000240 bb b3 58 3d e6 94 be 3c 71 98 03 3e 58 77 88 bb
       0.05290578 0.02326436 0.1285112 -0.0041646175
000250 cb 9b 7e 3c 18 cd 94 3d e5 c3 17 3e 84 52 25 3e
       0.015540074 0.07265681 0.14820822 0.16144758
000260 24 ba a4 3d 8d 48 12 bd 9b ca c3 3d 36 46 39 bd
       0.08043316 -0.03571372 0.09560128 -0.045232974
000270 d4 5e 85 3c f7 ad 1f 3e 06 b8 90 3d 16 2c d0 bb
       0.01628057 0.15593706 0.0706635 -0.0063529117
000280 c8 25 00 be 65 a9 e9 3d f2 7b 60 3e 75 c1 14 ba
       -0.12514412 0.114092626 0.21922281 -0.00056745793
000290 42 dd e9 3b 7f 67 78 3d fa 6a b8 bd 12 99 30 be
       0.0071369717 0.060645577 -0.09004779 -0.17245892
0002a0 bf ba 19 3e 97 51 30 3e 7d bc 9c 3d a8 08 9a 3d
       0.15012644 0.17218624 0.07653139 0.07521182
0002b0 5b de 92 bb dd 31 84 bd 0d c7 22 3e 86 01 ad 3d
       -0.0044820732 -0.06454823 0.15896244 0.08447556
0002c0 d6 ef 38 be 43 de 13 be 40 d1 f0 3d 74 f0 64 bd
       -0.1806024 -0.14440255 0.11758661 -0.055893376
0002d0 02 d0 a2 bd 4d cd 41 3d dd ba 5a bd 5b 72 71 bd
       -0.079498306 0.04731493 -0.053400863 -0.05894695
0002e0 a1 6c b7 bd 16 bd 98 bd 67 f7 54 3d 0b 21 a2 3d
       -0.08956266 -0.0745794 0.051993754 0.07916459
0002f0 08 52 83 3d 18 44 15 3c bf dc 63 3d a6 7d 6c 3d
       0.064121306 0.009110473 0.05563044 0.057737015
000300 39 31 f5 bd 37 76 95 3d e1 00 29 bc 35 15 0f 3e
       -0.11972279 0.07297938 -0.010315151 0.13972934
000310 0b e7 2d 3e 39 10 71 3e d6 3a 2c 3e f5 1f 9e 3c
       0.16982667 0.23541345 0.16819319 0.019302348
000320 00 eb 7a bd 7c d8 30 be c0 e7 ec bd f7 29 37 3c
       -0.06125927 -0.17270082 -0.1156764 0.011179439
000330 05 b5 48 3c ef 1a e9 3d 19 59 71 3c 43 30 bb 3d
       0.01225019 0.1138209 0.014730715 0.091400646
000340 15 00 4d 3e 3b 03 b8 be c7 f6 38 3d 35 ce 80 3d
       0.20019563 -0.35939965 0.04515722 0.06289331
000350 9c a9 73 3e 54 56 f8 3d 21 0a 3c bb d1 e8 c6 bd
       0.2379517 0.12125841 -0.002869256 -0.09712375
000360 21 7d 70 3d 83 ea 37 3e 4f a7 07 be 38 d7 ba 3d
       0.058713082 0.17960553 -0.13247417 0.09123081
000370 f6 c9 30 be 9f 43 f8 bd d5 d2 3b 3e 4f d3 4c 3e
       -0.17264542 -0.12122273 0.18342145 0.20002483
000380 78 ed 84 3c 61 a1 04 be 70 c7 f6 3c fd 5c c5 bc
       0.016226515 -0.12952186 0.030124396 -0.024092192
000390 3f ed a6 3c 2b 7c 10 3e 1c 1a d1 3d 24 5b 16 bc
       0.0203768 0.14109866 0.10210058 -0.009177003
0003a0 7d c5 b7 bd 5c 75 34 be 5e e5 44 bd 1b e9 44 bd
       -0.08973215 -0.17622894 -0.048070304 -0.04807387
0003b0 00 60 bd 3d c2 0a 7f 3d 28 55 1a be 27 b4 dc bd
       0.09246826 0.06226612 -0.15071547 -0.10776549
0003c0 c3 a1 45 bd 09 86 90 3d 57 b5 60 be cc 3e 53 3d
       -0.04824997 0.07056815 -0.21944176 0.05157356
0003d0 02 de c6 bd 75 20 9d bd 91 aa 8c 3d ed e3 64 3e
       -0.097103134 -0.07672206 0.068684705 0.22352572
0003e0 55 0f a2 3c 91 e5 d0 3c 74 20 05 bd 1a c4 b3 bc
       0.019782702 0.02550009 -0.032501653 -0.021944094
0003f0 aa dd bc bd 77 d8 5d 3e b3 73 b7 3c d8 79 17 be
       -0.092219666 0.21664606 0.022394037 -0.14792573

out.0.bias f4 [10]
000000 da da 9a bd 7d e1 17 bd 25 9f 2c bc ef 70 98 bd
       -0.07561274 -0.037080277 -0.01053599 -0.074434154
000010 77 bc d6 bc 83 cd 23 3d 8d a1 94 bc 67 b1 3b 3d
       -0.026212914 0.039990913 -0.01814344 0.04582348
000020 cd 4f 3b bd d4 8f 51 3d
       -0.0457304 0.051162556

out.1.weight f4 [10, 10]
000000 c7 4b 00 bf fe d3 98 be c9 95 27 3e 77 18 21 bf
       -0.5011563 -0.29849237 0.16365732 -0.62927955
000010 31 0c 67 3e c6 8e 84 3e fe e7 0d 3d 06 05 a3 3d
       0.22563244 0.25890177 0.034645073 0.079599425
000020 73 0d 38 3e 10 e1 8b 3e 4b 45 93 be cb b0 36 be
       0.1797388 0.27320147 -0.28763804 -0.17840879
000030 24 da 0f bd 70 b4 33 3e b8 9a b7 bd 8b a1 7a 3d
       -0.035120144 0.175493 -0.08965057 0.061189216
000040 8e d9 0c bf 2c f6 7d be b8 6d 6e be d5 c3 b8 be
       -0.5501946 -0.24800938 -0.23284042 -0.36086908
000050 99 5e ca 3e c2 a4 ec bd c8 68 f6 3d f4 de fc bd
       0.39525297 -0.115548626 0.12031704 -0.123472124
000060 62 13 6f 3e 33 dc 95 3e 50 1d 91 be 84 69 26 3c
       0.23347238 0.2926956 -0.28342676 0.010156993
000070 95 b4 ab be 38 47 a7 3e c7 6d 5b 3e d6 66 72 3e
       -0.3353621 0.32671523 0.21428595 0.23672041
000080 ea 69 04 3f 59 87 46 bc f1 8e 4b be 27 99 ec 3c
       0.5172411 -0.01211723 -0.19878747 0.028881622
000090 59 4f 80 3e 18 1b a7 bd 5f 64 a1 3d ae 12 5d bd
       0.25060537 -0.081594646 0.078804724 -0.053972892
0000a0 93 25 63 be 05 c8 7e 3e ed 86 f8 be b8 3f 42 3e
       -0.22182302 0.24880989 -0.4854044 0.1896962
0000b0 17 60 98 3e ac 31 cf 3e c2 82 8a 3e 65 a5 04 3e
       0.2976081 0.40467584 0.27052885 0.12953718
0000c0 a8 2f 6f be f2 0e 26 be de 8c 49 bc 84 e3 95 3e
       -0.23358023 -0.16216639 -0.012301652 0.29275143
0000d0 fe 1f f8 bd a7 58 93 bd 2e 75 90 bc 3f 3e e8 be
       -0.12115477 -0.071946435 -0.017634 -0.4535999
0000e0 bf 0b 8b bd b2 4b 7a 3d 2c be ea 3e 99 7a 02 3e
       -0.0678935 0.061107345 0.45848215 0.1274208
0000f0 d3 0c fe 3b 1d fd 62 be b9 b5 02 be 5d 12 fa be
       0.0077529936 -0.22166868 -0.12764634 -0.48842135
000100 f4 15 90 be d5 c4 fc 3d 99 45 27 be d5 f1 c9 3e
       -0.2814175 0.1234223 -0.16335143 0.39442316
000110 69 db 93 3e a5 79 9c be d5 c7 14 bc df 43 9b be
       0.28878334 -0.30561557 -0.009080847 -0.3032522
000120 c9 97 d2 3d b4 e9 70 3d d1 d4 ee 3e 79 ed 97 be
       0.10282857 0.058816627 0.4664674 -0.29673365
000130 a0 ac df 3d 7a 96 d9 3c 42 33 c6 be 04 c1 85 be
       0.109215975 0.02656101 -0.38710982 -0.26123822
000140 c5 7e 50 be f8 9c 99 3e 77 55 a8 bd 15 e8 03 bf
       -0.20360859 0.3000257 -0.08219426 -0.51526004
000150 5b 8c ba be fe 5f 29 be 3f 89 d5 ba 70 a7 46 3d
       -0.36435208 -0.16540524 -0.0016291513 0.048499525
000160 23 2b f1 be 4b 2f 87 3d 09 56 b1 be cf c8 31 be
       -0.47103223 0.06600817 -0.34635952 -0.17361759
000170 52 07 00 be 3b 59 90 3e 3b a0 80 be 95 9f 0e 3c
       -0.12502792 0.28193077 -0.25122246 0.0087050395
000180 61 42 9c 3e a8 be 39 3e 90 c4 64 be d4 c1 a4 3e
       0.30519393 0.18139136 -0.22340608 0.3217913

out.1.bias f4 [10]
000000 16 01 7d be a6 4c 83 3e d0 2b de bd 7e 4a 29 be
       -0.24707446 0.25644416 -0.108482 -0.16532323
000010 35 f6 86 bd d7 eb 8a be d5 cc 89 be 93 36 25 be
       -0.06589929 -0.27133057 -0.26914087 -0.161341
000020 69 b2 b7 3e f0 e6 80 be
       0.35878304 -0.2517619
